ppo.pth (torch_old, 54235 bytes, 12 tensors)

actor.std f4 [4]
-2.1126685 -1.9144144 -2.2029796 -1.5566986
00000000: f635 07c0 880b f5bf 9efd 0cc0 e641 c7bf

actor.network.0.weight f4 [64, 33]
0.07402821 -0.10342369 0.12827769 -0.015523072 -0.12643988 -0.23485003 0.09116819 0.14634253
-0.1500208 -0.09732637 -0.065485746 -0.2622102 -0.24647543 0.060314517 -0.066856116 -0.14715199
-0.089915305 0.0108543765 0.19936706 0.06180395 -0.15413572 0.1402055 0.024645373 -0.14238341
0.15551338 0.19999883 0.054096363 -0.032232817 -0.33777118 -0.0053319335 -0.06896448 0.11690581
-0.076030925 -0.20287554 -0.14090775 0.20059168 -0.053438064 0.13774908 0.039509475 0.17020148
-0.23361322 0.31631306 -0.32120565 -0.11589909 0.1790682 -0.04922471 -0.12191825 0.14868243
0.16116802 0.09085707 0.16611525 -0.21850443 -0.092034034 -0.23782 0.2848658 -0.07343234
0.19910131 0.25386626 -0.040784646 0.30520764 -0.0969224 -0.16107981 -0.13452286 -0.02534737
-0.13522974 -0.27922365 -0.10064419 0.15731874 0.34041134 0.12675993 0.23003949 0.1602607
0.15636027 -0.3842707 -0.38947016 -0.037507858 -0.10083676 -0.070848316 0.22644901 0.121047646
-0.03521648 0.14871539 -0.21154733 0.033794004 -0.19984171 -0.018532993 0.03012506 -0.48148888
0.14796625 -0.07160742 -0.04401377 -0.16713741 -0.05290806 0.017852537 -0.059901077 -0.07024392
-0.21661732 0.14717564 -0.21024048 0.15123592 -0.21084255 0.029221047 -0.04468322 0.18355958
-0.14488904 0.122585036 0.20590289 0.106520176 0.017897926 0.005860592 0.019305572 -0.3098519
-0.11100417 -0.09079318 0.16308078 0.12912767 -0.021043679 -0.5774712 0.09512698 0.37855032
0.31820896 0.092570215 -0.092290945 -0.10552901 0.10207123 0.024028886 0.034080274 -0.05837738
-0.019595534 0.06860267 -0.15321295 0.89243835 0.08905516 0.23069265 -0.01791517 -0.27109474
0.040877957 0.32124543 0.029368808 -0.032161646 0.3387749 -0.13647552 0.016277647 -0.04576132
0.10417634 -0.051696878 -0.107135095 0.015234614 -0.59707904 0.05404066 0.008014635 -0.103575505
-0.08559864 0.067628086 0.30986112 -0.10492932 -0.28052077 0.30884698 0.02197544 0.23332177
0.16837145 0.08627105 -0.099947356 -0.12841134 0.41832584 0.07663575 0.061595872 0.25126603
-0.24223414 0.14254269 0.04082435 0.0066226604 0.14874287 0.23642458 -0.026180856 0.032551784
-0.042132985 -0.020711213 -0.003529351 -0.12905811 -0.031111157 0.11643442 0.08118163 0.3275245
0.1570074 -0.04066833 0.23278841 0.014847419 -0.054317895 -0.30451414 -0.039345935 0.10465079
0.26416683 0.23404068 -0.07720806 -0.08668939 -0.021524057 0.06823204 0.18128613 0.32424992
0.08539534 -0.039681252 -0.032662 0.004876407 -0.004588565 -0.031219525 -0.21286531 -0.19492319
-0.14877991 0.30015442 0.18739109 0.21063742 -0.030184118 0.12417828 -0.16346477 -0.2192697
0.27558425 -0.019422043 0.27289256 0.20397963 0.4711283 0.24091876 -0.29160178 0.03207802
0.024543162 0.16126218 -0.06127639 -0.009367466 -0.15282777 -0.11497625 -0.122343406 0.14883123
0.08895406 -0.10027821 -0.06701036 0.14868055 0.19320871 0.1763761 0.14074956 -0.16822904
0.003421123 0.19233558 -0.10209985 -0.25362837 -0.072288424 0.22264092 0.12524746 -0.19400351
0.37227762 0.17630297 -0.1423857 0.14929126 0.18730028 0.1888862 0.24156941 -0.07342764
00000000: 1a9c 973d cdcf d3bd 3a5b 033e 7c54 7ebc
00000010: 7579 01be 877c 70be 63b6 ba3d d1da 153e
00000020: 0d9f 19be 0c53 c7bd 641d 86bd 6a40 86be
00000030: 0e64 7cbe 5b0c 773d dceb 88bd 03af 16be
00000040: 8425 b8bd 8ed6 313c e126 4c3e 2426 7d3d
00000050: c1d5 1dbe 0892 0f3e 18e5 c93c f5cc 11be
00000060: e63e 1f3e 7ecc 4c3e 2694 5d3d 8f06 04bd
00000070: 58f0 acbe 80b7 aebb 403d 8dbd 506c ef3d
00000080: 1ab6 9bbd 9bbe 4fbe 1f4a 10be e867 4d3e
00000090: dfe1 5abd 180e 0d3e b0d4 213d 4c49 2e3e
000000a0: 4e38 6fbe c9f3 a13e 1175 a4be 815c edbd
000000b0: a75d 373e d99f 49bd 47b0 f9bd 3540 183e
000000c0: 3b09 253e 4613 ba3d 1e1a 2a3e a0bf 5fbe
000000d0: 577c bcbd 1687 73be eed9 913e b263 96bd
000000e0: 37e1 4b3e c2fa 813e cd0d 27bd 2d44 9c3e
000000f0: 407f c6bd 1bf2 24be 5cc0 09be 4aa5 cfbc
00000100: aa79 0abe 67f6 8ebe 8b1e cebd 2a18 213e
00000110: 654a ae3e 5bcd 013e 798f 6b3e 621b 243e
00000120: e81c 203e 21bf c4be a268 c7be d7a1 19bd
00000130: 8183 cebd ec18 91bd 40e2 673e d4e7 f73d
00000140: 283f 10bd d948 183e dd9f 58be 956b 0a3d
00000150: 4ea3 4cbe 81d2 97bc d4c8 f63c b685 f6be
00000160: 7784 173e e9a6 92bd c847 34bd 1226 2bbe
00000170: 1fb6 58bd 7c3f 923c d55a 75bd 0bdc 8fbd
00000180: eed0 5dbe 36b5 163e 4849 57be 97dd 1a3e
00000190: 1ce7 57be fa60 ef3c c105 37bd 0bf7 3b3e
000001a0: cb5d 14be dd0d fb3d 35d8 523e 4027 da3d
000001b0: ac9e 923c 350a c03b b826 9e3c e9a4 9ebe
000001c0: 2756 e3bd c6f1 b9bd a6fe 263e 0b3a 043e
000001d0: cb63 acbc 27d5 13bf efd1 c23d 59d1 c13e
000001e0: 49ec a23e 7495 bd3d 0903 bdbd 981f d8bd
000001f0: b90a d13d 3ad8 c43c c297 0b3d 1f1d 6fbd
00000200: d086 a0bc 8f7f 8c3d dbe3 1cbe d776 643f
00000210: 8d62 b63d b23a 6c3e d6c2 92bc eecc 8abe
00000220: a56f 273d 487a a43e db96 f03c eebb 03bd
00000230: e773 ad3e 3dc0 0bbe b358 853c 3970 3bbd
00000240: 685a d53d 1bc0 53bd a569 dbbd 9a9a 793c
00000250: 2cda 18bf bd59 5d3d d14f 033c 651f d4bd
00000260: 574e afbd 9880 8a3d 1ea6 9e3e 2fe5 d6bd
00000270: 6ba0 8fbe 3121 9e3e d705 b43c e7eb 6e3e
00000280: 9169 2c3e e0ae b03d 33b1 ccbd 437e 03be
00000290: ce2e d63e 34f3 9c3d f44b 7c3d f1a5 803e
000002a0: 3a0c 78be b6f6 113e 6f37 273d e702 d93b
000002b0: 0d50 183e 4919 723e 3c79 d6bc 0555 053d
000002c0: a393 2cbd 90aa a9bc af4c 67bb cf27 04be
000002d0: d3dc febc 2b75 ee3d 8e42 a63d 4bb1 a73e
000002e0: 8cc6 203e d693 26bd 1660 6e3e 9742 733c
000002f0: 717c 5ebd 47e9 9bbe 3429 21bd 2753 d63d
00000300: e040 873e 5ca8 6f3e 421f 9ebd 358a b1bd
00000310: 3853 b0bc 3dbd 8b3d 12a3 393e 1604 a63e
00000320: c1e3 ae3d cf88 22bd 97c8 05bd 44ca 9f3b
00000330: ac5b 96bb 17c0 ffbc 5df9 59be f299 47be
00000340: c359 18be d7ad 993e 73e3 3f3e 56b1 573e
00000350: af44 f7bc 2f51 fe3d 4f63 27be 3c88 60be
00000360: 6119 8d3e fa1a 9fbc 93b8 8b3e 09e0 503e
00000370: bb37 f13e 68b3 763e d44c 95be 3e64 033d
00000380: be0e c93c ea21 253e f4fc 7abd 007a 19bc
00000390: e27e 1cbe ab78 ebbd 2e8f fabd 3767 183e
000003a0: 8c2d b63d aa5e cdbd ba3c 89bd b73f 183e
000003b0: 81d8 453e f09b 343e a720 103e 3c44 2cbe
000003c0: eb34 603b 9ef3 443e ba19 d1bd 94db 81be
000003d0: f40b 94bd fbfb 633e df40 003e dba8 46be
000003e0: 2c9b be3e c488 343e 8fcd 11be cfdf 183e
000003f0: a5cb 3f3e 626b 413e f95d 773e 3b61 96bd

actor.network.0.bias f4 [64]
0.0135153765 0.042690296 -0.16889198 -0.043580048 -0.4005023 -0.13732107 -0.23351607 -0.13622606
-0.068261385 0.11208468 0.0836317 -0.06509918 -0.07640838 -0.1476673 -0.03432562 0.00074260315
-0.044068888 -0.12804979 0.09891192 -0.011973581 -0.14933227 -0.17740165 -0.3024384 -0.02614765
0.024227772 -0.24086998 -0.1747597 -0.21213259 0.055469252 0.26756072 -0.19149676 -0.18812749
-0.10467138 -0.14833048 -0.110585265 0.14280209 -0.2927909 -0.07639205 0.19791295 -0.19552344
-0.19885834 0.17119578 -0.18630382 -0.14522341 -0.16865416 -0.13715793 0.09596507 -0.3684647
0.04336263 -0.15132274 0.043556087 0.027934177 -0.09617754 -0.0019071561 0.20084555 -0.18244448
0.1524085 -0.094282694 -0.07833533 0.031335108 0.106509455 -0.11049565 -0.0060114083 0.17117754
00000000: 996f 5d3c 05dc 2e3d 05f2 2cbe fe80 32bd
00000010: a30e cdbe e59d 0cbe d61e 6fbe d87e 0bbe
00000020: a0cc 8bbd a78c e53d 1947 ab3d b852 85bd
00000030: ff7b 9cbd 1936 17be 0599 0cbd 41ab 423a
00000040: 9481 34bd 7c1f 03be 5592 ca3d d72c 44bc
00000050: 8fea 18be c7a8 35be 35d9 9abe 9933 d6bc
00000060: 5279 c63c 9fa6 76be 35f4 32be 4939 59be
00000070: ba33 633d b8fd 883e ba17 44be 7ea4 40be
00000080: f35d d6bd f2e3 17be 877a e2bd b63a 123e
00000090: b0e8 95be 6f73 9cbd b1a9 4a3e 4c37 48be
000000a0: 85a1 4bbe f24d 2f3e 6ec6 3ebe 72b5 14be
000000b0: adb3 2cbe 2173 0cbe 5689 c43d 68a7 bcbe
000000c0: 039d 313d 59f4 1abe de67 323d 37d6 e43c
000000d0: bbf8 c4bd 8af9 f9ba 75aa 4d3e bad2 3abe
000000e0: f910 1c3e 4917 c1bd 466e a0bd 3e59 003d
000000f0: a121 da3d 8b4b e2bd 59fb c4bb 2a49 2f3e

actor.network.2.weight f4 [64, 64]
-0.20786373 0.076262645 -0.054744028 -0.23817477 -0.05485856 0.10427171 -0.22401735 0.03714608
-0.10132172 -0.17609663 -0.055364903 -0.0061489865 -0.22931819 -0.0108379545 -0.11077158 0.03406336
-0.09611405 -0.1394269 0.24285476 0.034245748 0.19057958 0.057864368 -0.17575692 0.12624465
-0.28838608 -0.12407194 -0.17249994 0.04832424 0.060264464 0.20548931 -0.08955468 -0.08042899
0.062254693 0.10499483 0.118877195 -0.030354204 0.09790168 -0.033224143 0.15968682 0.14023964
0.14877395 0.026490845 0.017086703 0.15738018 -0.111940704 -0.26940072 -0.019076105 -0.150104
0.24031304 0.021526776 -0.07597534 -0.27163517 -0.14284588 -0.06472864 -0.0076709418 0.10585522
0.21424216 -0.056066144 -0.48282894 0.001913427 -0.038121346 0.06497329 -0.04125198 -0.1524776
0.14092727 0.0803261 -0.11281931 -0.121053815 -0.046667866 0.11674539 -0.13652526 -0.2558995
0.044055406 -0.0031682688 -0.029060055 0.09429037 0.035961628 0.24036805 0.12253797 0.039744154
0.11000469 -0.06276256 0.09515206 0.0765421 -0.028451312 -0.1138721 -0.07394184 -0.121189214
-0.07249777 0.20754234 0.096574076 -0.21059775 0.120436735 -0.02649524 0.13107324 -0.041425418
-0.053171564 -0.069508575 -0.0070918547 0.14963579 0.1231739 0.0006879289 -0.2975515 0.078247525
-0.119706206 -0.044284888 0.044576943 0.015208862 -0.07125916 0.2335885 -0.056229357 -0.021100549
-0.0040322607 0.11825135 -0.11633058 0.11643724 0.022971088 -0.05773509 0.103873245 0.04198824
0.15334252 0.267899 0.117237404 -0.07142231 0.0249163 0.0473293 -0.051146984 -0.004815301
-0.04191278 -0.0909261 -0.046430025 -0.10798426 -0.0888324 -0.02189073 -0.091544464 -0.24157529
-0.14999765 -0.10714784 -0.030111704 -0.11592471 -0.047618695 -0.10716677 -0.06329757 -0.118538015
-0.031123376 -0.13116084 0.05003982 0.0693771 -0.056649715 -0.15570514 0.057359636 0.070375554
-0.013577724 -0.09266965 -0.14753765 0.09404428 -0.030064117 -0.041321065 0.07626232 -0.04743898
-0.15736842 -0.15076298 -0.014697375 -0.05848742 0.04648789 -0.143677 -0.091005854 -0.01070212
-0.079082474 -0.06932941 -0.18911363 -0.04499927 -0.08780448 -0.09482986 0.010723155 0.018648423
0.07414171 -0.120740056 0.049027216 -0.068909764 -0.12194779 0.08849346 0.05634057 -0.14717841
-0.12064095 0.051404998 -0.002311348 -0.21125232 -0.12179988 0.018832257 -0.12748574 0.083170265
0.14179495 -0.13172512 -0.2963212 0.001113094 -0.14444469 0.1466483 -0.25301537 0.0133683095
-0.087100886 -0.20726174 -0.099032596 -0.10530069 -0.21682474 -0.07828472 -0.00059463596 0.12606649
0.3008191 -0.33388254 -0.18491137 -0.22754185 0.3760105 -0.22743239 -0.15287997 0.1673847
-0.31625754 0.058359187 -0.21207789 -0.14759241 -0.032670844 0.12699631 0.15782808 -0.09474887
-0.0011935681 0.14369774 -0.024268135 -0.055867504 -0.060337987 0.23567414 -0.09045818 -0.046979688
-0.03818827 -0.036054738 0.006167812 0.0008438402 -0.025385858 0.027095238 -0.22682306 0.034614295
-0.21266347 -0.27455932 -0.18443932 0.034478612 -0.1844798 0.005533531 -0.19827437 0.16023494
0.18428168 -0.05000477 0.06426744 -0.26588532 0.10998452 -0.06796744 -0.14570281 -0.20508057
00000000: 3bda 54be 972f 9c3d 463b 60bd 16e4 73be
00000010: 5fb3 60bd 688c d53d ce64 65be 7d26 183d
00000020: c381 cfbd ad52 34be 4fc6 62bd 707d c9bb
00000030: 63d2 6abe ad91 31bc 36dc e2bd 0686 0b3d
00000040: 71d7 c4bd edc5 0ebe ebae 783e 4545 0c3d
00000050: 4b27 433e 3003 6d3d 9ff9 33be 4746 013e
00000060: 57a7 93be 6e19 febd d3a3 30be a3ef 453d
00000070: dfd7 763d ca6b 523e 7268 b7bd f4b7 a4bd
00000080: c7fe 7e3d 8807 d73d e375 f33d 61a9 f8bc
00000090: ad80 c83d 0a16 08bd f184 233e fb9a 0f3e
000000a0: 3358 183e 5403 d93c 6af9 8b3c 4528 213e
000000b0: 2b41 e5bd e4ee 89be 7e45 9cbc ddb4 19be
000000c0: 9f14 763e ec58 b03c f698 9bbd c413 8bbe
000000d0: 3146 12be 7390 84bd 865c fbbb 9fca d83d
000000e0: 4c62 5b3e 9da5 65bd 5b35 f7be f5cb fa3a
000000f0: 2125 1cbd b710 853d d6f7 28bd 1723 1cbe
00000100: 3d4f 103e 0382 a43d cf0d e7bd 10eb f7bd
00000110: ce26 3fbd 3518 ef3d 47cd 0bbe 4205 83be
00000120: 7173 343d bba2 4fbb 5a0f eebc 4f1b c13d
00000130: 804c 133d 0b23 763e 30f5 fa3d c4ca 223d
00000140: 244a e13d a889 80bd 15df c23d 1bc2 9c3d
00000150: ba12 e9bc c735 e9bd d26e 97bd 0d32 f8bd
00000160: b679 94bd fb85 543e a1c8 c53d f0a6 57be
00000170: 89a7 f63d 8c0c d9bc 1038 063e b3ad 29bd
00000180: 6dca 59bd 835a 8ebd ca62 e8bb 203a 193e
00000190: 9942 fc3d 2156 343a ac58 98be 3d40 a03d
000001a0: 8728 f5bd 1264 35bd 5096 363d 972e 793c
000001b0: 53f0 91bd d331 6f3e c150 66bd 0fdb acbc
000001c0: 0e21 84bb c42d f23d ba3e eebd a676 ee3d
000001d0: dd2d bc3c a17b 6cbd 7fbb d43d dcfb 2b3d
000001e0: d205 1d3e 0f2a 893e 2a1a f03d dc45 92bd
000001f0: 451d cc3c 5edc 413d 807f 51bd acc9 9dbb
00000200: bcac 2bbd 7737 babd 692d 3ebd da26 ddbd
00000210: c3ed b5bd 3054 b3bc aa7b bbbd 835f 77be
00000220: fc98 19be 5470 dbbd d2ac f6bc ef69 edbd
00000230: d20b 43bd 407a dbbd 28a2 81bd 0fc4 f2bd
00000240: 73f6 febc 074f 06be 8ef6 4c3d 9515 8e3d
00000250: 8809 68bd 2b71 1fbe f0f1 6a3d 0f21 903d
00000260: 1a75 5ebc 96c9 bdbd 1c14 17be 4a9a c03d
00000270: 0649 f6bc 4740 29bd 6b2f 9c3d 604f 42bd
00000280: 3025 21be 9c61 1abe 42cd 70bc 8190 6fbd
00000290: 166a 3e3d 1020 13be 4761 babd f257 2fbc
000002a0: fef5 a1bd 94fc 8dbd 01a7 41be 2851 38bd
000002b0: d6d2 b3bd 2836 c2bd 2cb0 2f3c 94c4 983c
000002c0: 9cd7 973d 9046 f7bd c3d0 483d 9020 8dbd
000002d0: c3bf f9bd 0f3c b53d 5fc5 663d f0b5 16be
000002e0: 9a12 f7bd 0c8e 523d fc79 17bb 8752 58be
000002f0: 3772 f9bd 1b46 9a3c 9f8b 02be 2c55 aa3d
00000300: b232 113e f3e2 06be 6ab7 97be 3de5 913a
00000310: 4fe9 13be f92a 163e 3b8b 81be c106 5b3c
00000320: f361 b2bd 6c3c 54be 9ad1 cabd e3a7 d7bd
00000330: 4e07 5ebe bd53 a0bd 58e1 1bba 9317 013e
00000340: f604 9a3e a7f2 aabe 6859 3dbe bb00 69be
00000350: 7384 c03e 09e4 68be 918c 1cbe e566 2b3e
00000360: 82ec a1be 0b0a 6f3d f22a 59be 7722 17be
00000370: ddd1 05bd 520b 023e af9d 213e b20b c2bd
00000380: 8071 9cba 8025 133e f8cd c6bc 53d5 64bd
00000390: f724 77bd 9054 713e 2342 b9bd c66d 40bd
000003a0: 4e6b 1cbd 22ae 13bd 5b1b ca3b 2835 5d3a
000003b0: 01f6 cfbc d5f6 dd3c 4e44 68be b8c7 0d3d
000003c0: 74c4 59be 0a93 8cbe a9dd 3cbe 7239 0d3d
000003d0: 46e8 3cbe 9f52 b53b 7008 4bbe a114 243e
000003e0: 56b4 3c3e cdd1 4cbd a69e 833d 1f22 88be
000003f0: 903f e13d 8332 8bbd 1e33 15be a400 52be

actor.network.2.bias f4 [64]
-0.009534123 -0.020939624 -0.12537165 0.0024817167 -0.0833148 -0.14840281 -0.06797423 0.030499106
-0.0657597 0.12120535 0.013450783 -0.13211456 0.073049076 -0.08289763 -0.048289564 -0.029229779
0.06709689 -0.09988935 0.021291746 -0.09240328 -0.039787795 -0.23054497 0.008468756 0.13457164
-0.04113135 0.03579359 -0.034912653 -0.09715208 -0.009138454 -0.15294337 -0.09929502 0.06063001
0.123089075 -0.087577336 -0.19916731 -0.13522135 0.06768688 0.06766873 -0.010164302 -0.063637815
-0.009333294 -0.20346978 0.090296745 -0.09508695 0.038227476 -0.05709497 0.06788891 -0.05585054
0.07115525 0.0007285441 -0.13098827 -0.06431307 0.067965426 0.058129024 -0.08429662 -0.04693908
-0.06161266 0.038728833 0.0031682788 0.14521445 -0.17921376 0.063802704 0.09123212 -0.023117395
00000000: 0335 1cbc 9389 abbc 6d61 00be 4ca4 223b
00000010: f3a0 aabd e8f6 17be 1336 8bbd 43d9 f93c
00000020: 06ad 86bd 833a f83d ac60 5c3c 0a49 07be
00000030: c19a 953d 3cc6 a9bd 47cb 45bd 4a73 efbc
00000040: 186a 893d ca92 ccbd 076c ae3c ee3d bdbd
00000050: 87f8 22bd fb13 6cbe 8ac0 0a3c 26cd 093e
00000060: 5979 28bd 4d9c 123d 9200 0fbd abf7 c6bd
00000070: 74b9 15bc 309d 1cbe 305b cbbd 2c57 783d
00000080: 2016 fc3d bf5b b3bd 84f2 4bbe 7777 0abe
00000090: 6b9f 8a3d e795 8a3d 2c88 26bc 8b54 82bd
000000a0: acea 18bc 625a 50be 80ed b83d f2bc c2bd
000000b0: 6a94 1c3d 6adc 69bd 5709 8b3d 89c3 64bd
000000c0: d8b9 913d c4fb 3e3a ca21 06be 92b6 83bd
000000d0: 7531 8b3d b318 6e3d b5a3 acbd 3143 40bd
000000e0: 8e5d 7cbd 20a2 1e3d e6a2 4f3b 19b3 143e
000000f0: d083 37be feaa 823d e8d7 ba3d b160 bdbc

actor.network.4.weight f4 [4, 64]
-0.0022372066 0.04191638 -0.107851624 0.0037136632 -0.02325476 0.1442955 0.11276516 0.14081226
0.042289145 -0.10965805 -0.011028747 -0.015741087 -0.0015900919 -0.046733096 -0.07820019 0.041656908
0.1280802 0.105505206 -0.28004846 -0.07581279 0.020748004 -0.1971725 0.08660988 -0.16226386
-0.037790373 -0.07962619 0.080988124 -0.048118584 -0.089959085 -0.09399045 -0.007966473 0.16029592
-0.20167835 -0.085431084 0.055182677 -0.07769371 0.05787903 -0.13825971 -0.20180883 -0.15713818
-0.04416168 0.0054446217 0.10374935 -0.07418615 -0.0073925056 -0.054152947 0.07532223 0.28359434
0.12755476 0.027723176 0.01744391 -0.04655685 0.06589168 0.06077105 0.18316089 0.25452292
0.101268135 0.23926586 -0.037008066 -0.020980466 0.017387172 -0.11424045 0.002999458 0.11863474
-0.04131381 0.07398605 -0.1595558 -0.15076615 -0.102070175 0.2081723 -0.17608479 -0.04792637
0.15106183 -0.03139358 0.07141017 -0.05389347 0.027164802 0.24676651 0.10092935 0.13758978
-0.015544533 -0.024648087 0.09685154 -0.030781558 -0.15353699 -0.09985247 -0.017830404 -0.10279775
0.03080376 0.024919836 -0.15624166 -0.09729057 -0.05732169 0.15387751 0.059422817 -0.12033455
-0.04377754 -0.0022614119 0.09399405 -0.19387662 -0.01777385 -0.13356018 0.23956071 -0.059499834
-0.08128933 -0.074854344 0.12811385 -0.07053415 0.10265875 -0.1547741 -0.055204388 -0.09998513
0.13659868 0.14123155 0.02262948 -0.075667985 0.038719583 0.13281754 0.08947735 -0.05706386
-0.036148272 0.020209806 0.079897776 -0.24174058 0.072119035 0.019267503 0.051076148 0.27667505
0.154973 0.08869404 -0.036960784 0.17881516 0.13434371 0.14620958 -0.09834381 0.1323639
-0.25624743 0.0875037 -0.016769862 -0.3369827 -0.29348394 -0.14985435 -0.043028668 -1.4570687e-05
-0.08718144 -0.015096348 0.04909836 0.052354895 -0.2840248 -0.032088604 0.06853296 0.06116777
-0.13855593 0.010935704 0.002340823 -0.2051845 -0.01526043 -0.23310551 0.14277479 -0.014987364
-0.00039342802 -0.12600474 -0.1216945 -0.07621676 -0.03119103 0.064824805 -0.055615194 0.19656138
-0.03865453 -0.24156527 0.08082603 0.07247285 0.075845756 -0.16410919 0.107650876 -0.19117258
0.0374123 0.10140218 0.03200488 -0.29350063 0.11402451 0.04734039 -0.12339059 0.13032214
-0.3171933 -0.053506996 0.032172374 -0.23667632 -0.08506407 0.20839103 0.12536745 -0.014252889
0.019353438 0.1981193 -0.0046538403 0.1860934 -0.30698943 0.105854586 0.10820196 0.13135247
-0.011400453 -0.18078421 -0.32221192 -0.043896552 -0.21989484 -0.22440375 0.14816535 -0.04458987
-0.12754804 -0.11166915 -0.19129662 -0.116358854 -0.007840623 -0.0064554005 -0.33343348 0.11389979
0.15264115 -0.06920053 -0.002648011 -0.034057867 0.19465376 0.11227986 0.010713474 0.03171634
0.09029383 -0.23178509 0.02928781 0.051286746 -0.16504322 0.082257524 -0.09364159 -0.17640162
-0.06378239 -0.03173854 0.09585448 -0.06952245 -0.060404252 0.020139584 -0.12131239 0.10716131
-0.04043871 -0.53601915 -0.07030139 -0.36884138 0.26410943 0.16399834 0.13781118 0.003646956
0.26679695 -0.3041912 -0.105977684 -0.007024136 0.25438026 -0.20020376 -0.037613254 -0.0022335958
00000000: 199e 12bb 83b0 2b3d 50e1 dcbd ee60 733b
00000010: c480 bebc 33c2 133e 6cf1 e63d 1731 103e
00000020: 6237 2d3d 6694 e0bd ebb1 34bc 74f3 80bc
00000030: a16a d0ba 346b 3fbd 6c27 a0bd 6fa0 2a3d
00000040: 7527 033e 1d13 d83d 8362 8fbe bc43 9bbd
00000050: b8f7 a93c 96e7 49be 8560 b13d 7f28 26be
00000060: 14ca 1abd 0e13 a3bd 1add a53d fe17 45bd
00000070: 783c b8bd 117e c0bd cf85 02bc 9d24 243e
00000080: c584 4ebe 7ef6 aebd 3b07 623d e11d 9fbd
00000090: 9012 6d3d f493 0dbe f9a6 4ebe d5e8 20be
000000a0: e1e2 34bd cc68 b23b 8a7a d43d e9ee 97bd
000000b0: d53c f2bb 7bcf 5dbd 8b42 9a3d 4733 913e
000000c0: b79d 023e b71b e33c 88e6 8e3c 65b2 3ebd
000000d0: 38f2 863d 11eb 783d 878e 3b3e d450 823e
000000e0: ab65 cf3d 1c02 753e c595 17bd 3adf abbc
000000f0: 8b6f 8e3c e6f6 e9bd 8e92 443b c5f6 f23d
00000100: ab38 29bd 0086 973d 9862 23be 7162 1abe
00000110: 2b0a d1bd 1f2b 553e 924f 34be 714e 44bd
00000120: f4af 1a3e 8e96 00bd 7f3f 923d 66bf 5cbd
00000130: b888 de3c 5cb0 7c3e 0cb4 ce3d 56e4 0c3e
00000140: 7fae 7ebc c9ea c9bc 1a5a c63d 9b29 fcbc
00000150: cd38 1dbe 747f ccbd 1111 92bc a087 d2bd
00000160: 2b58 fc3c af24 cc3c d0fd 1fbe 4740 c7bd
00000170: 26ca 6abd 1192 1d3e 5765 733d f671 f6bd
00000180: 1450 33bd 3234 14bb f47f c03d 9887 46be
00000190: 779a 91bc 00c4 08be 674f 753e 19b6 73bd
000001a0: 057b a6bd 3c4d 99bd 4730 033e 3574 90bd
000001b0: c03e d23d 1a7d 1ebe ff1d 62bd 01c5 ccbd
000001c0: 86e0 0b3e 019f 103e 7661 b93c d1f7 9abd
000001d0: 6d98 1e3d 5201 083e e73f b73d cbbb 69bd
000001e0: 3610 14bd 098f a53c 72a1 a33d d88a 77be
000001f0: 25b3 933d e2d6 9d3c 3935 513d 5aa8 8d3e
00000200: 3eb1 1e3e 39a5 b53d 3164 17bd 521b 373e
00000210: 6691 093e f7b7 153e 7b68 c9bd 678a 073e
00000220: dd32 83be 2435 b33d f360 89bc ff88 acbe
00000230: 8743 96be 6b73 19be d43e 30bd a074 74b7
00000240: 2f8c b2bd ac56 77bc 5d1b 493d 1672 563d
00000250: b36b 91be 576f 03bd 025b 8c3d 0e8b 7a3d
00000260: 9be1 0dbe ab2b 333c 7e68 193b e31b 52be
00000270: e206 7abc 36b3 6ebe 8e33 123e 908d 75bc
00000280: 0445 ceb9 6307 01be f73a f9bd 8817 9cbd
00000290: 5584 ffbc dec2 843d c2cc 63bd 6347 493e
000002a0: 3654 1ebd e35c 77be 1e88 a53d a56c 943d
000002b0: 0555 9b3d 3d0c 28be 1078 dc3d bfc2 43be
000002c0: a43d 193d f2ab cf3d 8d17 033d b745 96be
000002d0: af85 e93d ffe7 413d 35b4 fcbd 2b73 053e
000002e0: 2967 a2be 272a 5bbd 2ec7 033d 475b 72be
000002f0: 1236 aebd 7564 553e 5360 003e f384 69bc
00000300: 1a8b 9e3c c9df 4a3e 3e7f 98bb 458f 3e3e
00000310: b82d 9dbe 4aca d83d fd98 dd3d 4381 063e
00000320: f7c8 3abc 7f1f 39be f6f8 a4be dfcc 33bd
00000330: 1d2c 61be 19ca 65be a8b8 173e dea3 36bd
00000340: f49b 02be ccb2 e4bd 43e3 43be 8d4d eebd
00000350: f575 00bc d387 d3bb cbb7 aabe 4b44 e93d
00000360: f64d 1c3e 02b9 8dbd 418a 2dbb 4380 0bbd
00000370: 5153 473e fcf2 e53d 9187 2f3c fee8 013d
00000380: f9eb b83d 1259 6dbe fdec ef3c 0d12 523d
00000390: 1701 29be a276 a83d 29c7 bfbd a0a2 34be
000003a0: 57a0 82bd 4500 02bd 5b4f c43d c961 8ebd
000003b0: 736a 77bd c5fb a43c a172 f8bd 6477 db3d
000003c0: 10a3 25bd 8d38 09bf 2dfa 8fbd c7d8 bcbe
000003d0: 5a39 873e 2eef 273e 601e 0d3e c501 6f3b
000003e0: 9c99 883e f3be 9bbe d40a d9bd b92a e6bb
000003f0: 213e 823e 3702 4dbe 5b10 1abd 8561 12bb

actor.network.4.bias f4 [4]
-0.029015157 0.029760702 0.13131304 -0.07435615
00000000: 32b1 edbc b7cc f33c ed76 063e 0a48 98bd

critic.network.0.weight f4 [64, 33]
-0.30124083 -0.12168139 0.013766378 -0.052374423 0.16529283 -0.37674993 0.108444266 -0.008400934
0.5474026 0.08425065 -0.020264123 -0.038397714 -0.09098803 0.12531115 0.3133888 -0.054306276
0.1362384 0.12634276 0.37064078 0.042321257 -0.029015345 0.058773153 0.15838955 0.1185732
0.13258249 -0.059236757 0.024376485 0.42705873 0.17764105 0.08480942 -0.27595994 -0.08887473
-1.3061142 -0.08962163 0.17562994 -0.056078915 -0.5098984 0.050675154 0.28123152 -0.02876203
0.022888457 -0.52761215 0.30173662 -0.071655236 -0.03708115 -0.040781796 -0.13978812 -0.2010498
0.04003322 -0.0919929 0.18581367 -0.11594188 0.0021908944 0.0038514065 -0.05255152 0.12792756
-0.18933637 -0.010765514 -0.07491899 0.10220028 0.5001342 0.16867884 -0.0862573 -0.42062098
-0.047454387 2.041822 0.15643778 -0.11261761 0.14033103 0.23674496 -0.063210644 0.51194173
-0.37381834 -0.050328363 0.5582712 0.37511048 -0.06104009 0.024043279 0.11009338 -0.18161425
0.6383631 -0.1413428 -0.20414361 -0.068943076 0.18702362 -0.15903857 0.0026588575 0.02280821
-0.08150562 0.074529886 0.16004078 -0.07370056 -0.0036131917 0.12798324 0.18273526 0.16897103
-0.051818095 0.061640278 -1.5685158 0.20250048 0.16365485 0.20578676 -0.3900438 -0.19887407
0.2757223 0.042912565 -0.03319677 0.39185634 -0.37315905 -0.0058015436 -0.10221595 0.20218553
-0.17835563 0.95320183 -0.44249335 0.42886615 0.25099134 0.14919728 -0.2612546 -0.11215043
0.32606626 -0.1510716 -0.15804492 0.16852531 0.03972426 0.14879638 0.10995478 0.25545394
0.038607582 -0.26920918 0.034420714 0.11923221 -0.033754762 0.00349114 -0.011199804 0.09988648
0.11322596 0.15468463 0.191782 -0.0252838 0.052453097 0.030376092 -0.037209723 -0.0152067905
0.0012762503 -0.007385606 0.0012584128 -0.013559383 -0.016188886 -0.050427724 0.038124323 0.056199603
-0.012590023 -0.028252866 0.009943083 0.014332114 -0.020773796 -0.004740135 0.06559576 -0.093628675
-0.018076831 0.0032550097 0.046108343 -0.06673114 4.743891 -0.57967114 -0.00867583 -0.19487427
-0.102851056 -0.16626497 0.17156902 -0.05628495 -0.08586459 -0.23822242 0.15000664 -0.036812365
-0.033034053 -0.13548034 0.54879546 -0.21155684 0.38447902 0.017726097 0.20537558 0.113331236
-0.113392316 -0.035344824 -0.019541455 0.04895808 0.1516256 -0.1006573 0.0011147985 -0.22635937
0.43459302 -0.119034946 -0.10506597 -0.34329504 -0.0126719475 -1.0313134 -0.19634654 0.36262533
0.18765582 -0.19958077 0.08189883 -0.10187177 0.034234792 -0.0651894 0.22997865 0.12609111
0.0113029815 0.010170757 -0.20537853 0.14177261 0.6405536 -0.084096834 -0.1648308 -0.2172362
-0.100624286 0.17156075 0.047345247 -0.10509818 -0.1339981 0.10251179 0.1322736 0.06363742
-0.08184485 0.35125595 0.07789364 0.111803144 -0.5331946 0.00264287 0.03796964 0.10255199
-0.10451006 0.28520742 0.07344288 -0.070386134 0.15302424 0.094220124 0.09653132 0.16279842
-0.028533742 0.035199985 0.025373822 0.08833227 -0.1812296 0.11344581 0.008424075 0.53341013
-0.08743576 0.05155578 0.20266202 0.037562188 0.07252322 0.077384 0.026192954 -0.019207738
00000000: 3d3c 9abe 1834 f9bd 608c 613c 9086 56bd
00000010: 8642 293e 5ee5 c0be 0718 de3d 12a4 09bc
00000020: 9422 0c3f 9b8b ac3d f200 a6bc ec46 1dbd
00000030: ef57 babd 9151 003e 7f74 a03e 4270 5ebd
00000040: 1482 0b3e ff5f 013e a1c4 bd3e 0e59 2d3d
00000050: 97b1 edbc 1ebc 703d df30 223e 82d6 f23d
00000060: b4c3 073e 3ea2 72bd 32b1 c73c 71a7 da3e
00000070: 89e7 353e 90b0 ad3d 9f4a 8dbe f403 b6bd
00000080: c02e a7bf 8c8b b7bd 56d8 333e 01b3 65bd
00000090: b488 02bf c090 4f3d 94fd 8f3e 599e ebbc
000000a0: 9380 bb3c 9711 07bf 397d 9a3e fbbf 92bd
000000b0: 67e2 17bd d00a 27bd 9e24 0fbe 00e0 4dbe
000000c0: e0f9 233d c666 bcbd f045 3e3e f072 edbd
000000d0: 1c95 0f3b e167 7c3b 4340 57bd 71ff 023e
000000e0: 65e1 41be d761 30bc 216f 99bd 614e d13d
000000f0: cc08 003f 25ba 2c3e aba7 b0bd a25b d7be
00000100: 885f 42bd 36ad 0240 3a31 203e 10a4 e6bd
00000110: f0b2 0f3e 456d 723e 9574 81bd 9d0e 033f
00000120: 1e65 bfbe 1d25 4ebd ddea 0e3f 7b0e c03e
00000130: 2c05 7abd 69f6 c43c a378 e13d 16f9 39be
00000140: c46b 233f 2bbc 10be 060b 51be 0732 8dbd
00000150: 1f83 3f3e 02db 22be 3a40 2e3b 49d8 ba3c
00000160: 6bec a6bd 20a3 983d bbe1 233e 52f0 96bd
00000170: 4ccb 6cbb 0a0e 033e f41e 3b3e be06 2d3e
00000180: 363f 54bd 847a 7c3d 20c5 c8bf 495c 4f3e
00000190: 2395 273e c4b9 523e d2b3 c7be a5a5 4bbe
000001a0: 792b 8d3e 16c5 2f3d 56f9 07bd 65a1 c83e
000001b0: b40e bfbe e01a bebb 9956 d1bd b909 4f3e
000001c0: dca2 36be 0905 743f 7d8e e2be 5894 db3e
000001d0: f081 803e 2cc7 183e 2ac3 85be 20af e5bd
000001e0: 28f2 a63e 83b2 1abe 87d6 21be e691 2c3e
000001f0: e8b5 223d 145e 183e f92f e13d dcca 823e
00000200: fc22 1e3d c9d5 89be bcfc 0c3d 0430 f43d
00000210: 6f42 0abd 9ccb 643b 627f 37bc 4891 cc3d
00000220: 03e3 e73d a665 1e3e 8062 443e f91f cfbc
00000230: 0fd9 563d 48d7 f83c 3969 18bd e725 79bc
00000240: db47 a73a f402 f2bb 54f1 a43a 2d28 5ebc
00000250: 8e9e 84bc 4d8d 4ebd 4028 1c3d 8e31 663d
00000260: 6246 4ebc 8e72 e7bc 50e8 223c 3ed1 6a3c
00000270: cf2d aabc 2253 9bbb 1257 863d 64c0 bfbd
00000280: dd15 94bc 0052 553b 1adc 3c3d 56aa 88bd
00000290: f4cd 9740 5465 14bf 1225 0ebc 1f8d 47be
000002a0: 93a3 d2bd 5d41 2abe caaf 2f3e 0c8b 66bd
000002b0: c6d9 afbd 94f0 73be 579b 193e 90c8 16bd
000002c0: b74e 07bd 5cbb 0abe dc7d 0c3f 5ba2 58be
000002d0: 6fda c43e 5236 913c fa4d 523e 351a e83d
000002e0: 3b3a e8bd bcc5 10bd 6715 a0bc 4588 483d
000002f0: be43 1b3e 6a25 cebd 6e1e 923a c0ca 67be
00000300: fa82 de3e 98c8 f3bd d42c d7bd 5ec4 afbe
00000310: 009e 4fbc 1402 84bf 110f 49be 07aa b93e
00000320: d928 403e e75e 4cbe 93ba a73d 26a2 d0bd
00000330: c839 0c3d 0582 85bd 867f 6b3e 071e 013e
00000340: 2430 393c 3fa3 263c c04e 52be d72c 113e
00000350: 52fb 233f f63a acbd 68c9 28be 2b73 5ebe
00000360: 1b14 cebd 9fad 2f3e 17ed 413d b73d d7bd
00000370: cc36 09be b4f1 d13d bb72 073e 5654 823d
00000380: 469e a7bd d2d7 b33e b386 9f3d 0cf9 e43d
00000390: 717f 08bf 0034 2d3b 0e86 1b3d c706 d23d
000003a0: 5f09 d6bd b506 923e 3869 963d 9b26 90bd
000003b0: 63b2 1c3e 7bf6 c03d 36b2 c53d a1b4 263e
000003c0: 98bf e9bc dc2d 103d c3dc cf3c 8de7 b43d
000003d0: 4194 39be 4756 e83d 2205 0a3c 918d 083f
000003e0: 8511 b3bd 272c 533d a286 4f3e cfda 193d
000003f0: 0e87 943d 817b 9e3d 9b92 d63c 8c59 9dbc

critic.network.0.bias f4 [64]
-0.5228663 -0.37030604 -0.2377086 -0.2387676 -0.0064678816 -0.18789148 -0.31323653 -0.110197306
-0.4330009 -0.15000539 -0.15707615 -0.21657415 -0.37472594 -0.65817904 -0.35064754 -0.2451969
0.19825491 -0.47643518 -0.28691453 -0.12513936 -0.38614494 -0.13662754 -0.31533524 -0.4875551
-0.33968803 -0.35873154 -0.39112672 -0.41544053 -0.34370258 -0.088678 -0.560698 -0.6825419
-0.31594864 -0.5332722 -0.31850272 -0.01644097 -0.28224853 -0.20085892 -0.5527767 -0.28738868
-0.114258386 -0.092371225 -0.11410839 0.026417587 -0.10997225 0.17150861 -0.11235879 -0.4861115
-0.44256148 -0.21083334 -0.47592744 -0.42165864 -0.2576942 -0.100248456 -0.4868278 -0.16276991
-0.058900468 -0.390572 -0.25543287 -0.31150106 -0.36483684 -0.1851565 -0.39226335 -0.25575805
00000000: 91da 05bf c198 bdbe e269 73be 7e7f 74be
00000010: 86f0 d3bb a066 40be 8a60 a0be 20af e1bd
00000020: 4bb2 ddbe 039b 19be 92d8 20be 9dc5 5dbe
00000030: 14dc bfbe 6c7e 28bf 1388 b3be e514 7bbe
00000040: 5603 4b3e 50ef f3be 76e6 92be 8824 00be
00000050: cab4 c5be 17e8 0bbe 9f73 a1be d2a0 f9be
00000060: 97eb adbe a9ab b7be c341 c8be 9fb4 d4be
00000070: c9f9 afbe d09c b5bd e789 0fbf 11bb 2ebf
00000080: 05c4 a1be 8784 08bf ca12 a3be 37af 86bc
00000090: e182 90be f6ad 4dbe c682 0dbf 9c24 93be
000000a0: 4d00 eabd 202d bdbd a9b1 e9bd b269 d83c
000000b0: 2239 e1bd f49f 2f3e 5e1c e6bd 9be3 f8be
000000c0: 6b97 e2be b2e4 57be c3ac f3be a4e3 d7be
000000d0: 7ff0 83be 104f cdbd 7e41 f9be 28ad 26be
000000e0: 9e41 71bd 0ef9 c7be 19c8 82be 117d 9fbe
000000f0: e5cb babe aa99 3dbe bed6 c8be b8f2 82be

critic.network.2.weight f4 [64, 64]
-0.1600126 0.052102685 0.024249243 -0.3377489 -0.4181462 0.4594227 -0.37877423 -0.018320234
-0.23699963 -0.20359945 -0.54720455 -0.6261023 -0.55632085 -0.12909631 0.06456993 0.14386849
0.03695652 0.41294304 0.05444082 0.17892481 0.63801104 -0.15918764 -0.17200026 -0.04753813
-0.116556264 0.11640668 -0.12971881 -0.124466695 -0.13666181 -0.11953213 0.061018262 -0.002513586
-0.2840658 0.00084230414 -0.29350156 -0.15695041 -0.19521265 -0.28146842 -0.32378718 -0.80407673
-0.21279716 0.4706396 0.003251329 -0.40855038 -0.18319878 0.11413124 -0.0934756 0.29502657
-0.41101548 -0.056226574 -0.25817558 -0.07316854 -0.5459943 -0.4229626 -0.2741809 -0.31304365
0.0354455 0.08923757 -0.60791725 -0.18189786 0.044484712 -0.43373466 -0.2901753 0.03229376
0.19196254 0.29208425 -0.4264827 -0.14538188 -2.5803683 0.042104203 -0.28653616 -0.072206445
0.03860454 0.018498909 -0.10822719 -0.34738934 0.039855216 0.16503344 -0.15251298 0.014256045
0.1015971 0.07287295 -0.24071753 0.08745029 -0.09600224 0.2245 0.051650807 -0.004745368
-0.16062488 -0.347298 -0.16230538 0.132916 -0.26290202 -0.39140165 -0.2767131 -0.048122253
0.10344846 0.20370623 -0.0101797255 -0.9579877 -0.27849266 0.1523622 0.032631796 -0.036855634
-0.21708487 -0.2500488 0.21793884 0.20914385 -0.37376174 0.07420986 0.11763933 0.029733645
0.124307066 -0.021351164 -0.1260911 -0.00085611077 -0.171705 -0.21911532 0.14816378 -0.022805717
-0.30902895 0.26411134 0.061211754 0.3599044 -0.28304288 0.053522713 -0.19762558 -0.04194054
-0.10023784 -0.2992287 -0.24259678 -0.18612456 -0.22561261 -0.10125509 -0.1379611 -0.18572617
-0.36007026 -0.1688372 -0.37319773 0.03259618 -0.11795729 -0.43312708 -0.1255007 -0.3924356
-0.49373233 0.201024 -0.24246518 -0.20654729 -0.41427204 -0.091721095 -0.2830057 -0.1806081
-0.24736089 -0.12173846 0.056329135 -0.32207528 -0.24000289 -0.064488634 0.026381964 -0.17818402
-0.23585503 -0.042272177 -0.12354481 0.08775223 -0.22039591 -0.0725003 -0.4149904 -0.1764396
-0.2857199 -0.0936395 -0.2925984 -0.06745796 -0.20879298 -0.01743801 -0.16699894 -0.3971178
-0.18769754 -0.09604654 0.16044937 -0.21780908 -0.06941186 -0.25271824 0.11655466 -0.26225087
0.1019522 0.079521805 -0.18258399 0.15444638 -0.09108876 -0.1489256 -0.34331188 -0.23394488
0.25960702 -0.3791869 -0.55866957 -0.25486526 -1.5141132 0.081530824 0.0957531 -0.034570258
-0.36045673 -0.23068088 -0.10558302 -0.15021321 -0.13535577 0.049814068 0.13245101 0.023079133
-0.251734 -0.1173313 -0.24583279 -0.4925966 -0.23987935 -0.3170094 -0.049755998 -0.19676487
-0.21290416 -0.6279147 -0.010892287 -0.46602854 -0.45538104 -0.64536947 -0.04769308 -0.2781752
-0.19565967 -0.30725637 -0.29441643 0.25069886 -0.48140708 0.33230996 -0.29485536 0.0603371
-0.06365087 -0.967832 -0.24170195 0.2522301 -0.115355104 0.12598605 -0.67319435 -0.07526261
0.100210905 0.0704499 -0.13526827 -0.2960697 -0.07944221 -0.23133887 -0.4151776 -0.11638676
-0.02248849 0.4103516 -0.37789243 -0.031351384 -0.21676609 -0.7098916 -0.18198596 0.1421056
00000000: 58da 23be a069 553d 59a6 c63c 6ced acbe
00000010: 4217 d6be 7439 eb3e b2ee c1be 5114 96bc
00000020: 08b0 72be 607c 50be 9915 0cbf 3e48 20bf
00000030: 0b6b 0ebf d331 04be 3d3d 843d 4352 133e
00000040: b85f 173d 456d d33e 56fd 5e3d 1138 373e
00000050: b154 233f 1602 23be d620 30be 58b7 42bd
00000060: 0db5 eebd a066 ee3d 02d5 04be 65e8 febd
00000070: 13f1 0bbe 43cd f4bd 49ee 793d faba 24bb
00000080: 1371 91be 13ce 5c3a d645 96be 9cb7 20be
00000090: d3e5 47be a11c 90be 6fc7 a5be f9d7 4dbf
000000a0: 80e7 59be acf7 f03e 4014 553b 842d d1be
000000b0: 7698 3bbe a4bd e93d 2370 bfbd b90d 973e
000000c0: 9f70 d2be d64d 66bd 972f 84be 63d9 95bd
000000d0: 48c6 0bbf 8e8e d8be 7061 8cbe 4247 a0be
000000e0: 4d2f 113d 30c2 b63d 77a0 1bbf 6f43 3abe
000000f0: 9a35 363d 7812 debe db91 94be 7646 043d
00000100: d491 443e 118c 953e f15b dabe fdde 14be
00000110: c124 25c0 7575 2c3d deb4 92be f9e0 93bd
00000120: cb1f 1e3d 068b 973c 38a6 ddbd 04dd b1be
00000130: 393f 233d 87fe 283e 5d2c 1cbe 3092 693c
00000140: 2412 d03d 6a3e 953d a87e 76be 2319 b33d
00000150: d39c c4bd 54e3 653e cc8f 533d 087f 9bbb
00000160: d97a 24be 0bd1 b1be 6233 26be 221b 083e
00000170: 189b 86be cc65 c8be 57ad 8dbe d71b 45bd
00000180: c9dc d33d 5e98 503e ddc8 26bc af3e 75bf
00000190: 9796 8ebe d604 1c3e eba8 053d eff5 16bd
000001a0: 7f4b 5ebe 6506 80be 5c2b 5f3e ce29 563e
000001b0: b35d bfbe 57fb 973d e4ec f03d f993 f33c
000001c0: b494 fe3d a3e8 aebc 061e 01be 9f6c 60ba
000001d0: 6fd3 2fbe c45f 60be 3fb8 173e 0ed3 babc
000001e0: 0b39 9ebe 9a39 873e 2db9 7a3d 6445 b83e
000001f0: ffea 90be a23a 5b3d 5c5e 4abe d8c9 2bbd
00000200: 7f49 cdbd 8134 99be 4a6b 78be 7097 3ebe
00000210: fe06 67be d45e cfbd ad45 0dbe 002f 3ebe
00000220: 215b b8be a9e3 2cbe c613 bfbe 9283 053d
00000230: 9793 f1bd d5c2 ddbe 4183 00be 52ed c8be
00000240: 7cca fcbe 3cd9 4d3e cb48 78be 2281 53be
00000250: 771b d4be 45d8 bbbd 20e6 90be 54f1 38be
00000260: 2c4c 7dbe 0452 f9bd 61b9 663d 0de7 a4be
00000270: 51c3 75be 9e12 84bd fd1e d83c df75 36be
00000280: fb83 71be 9725 2dbd 1005 fdbd 71b7 b33d
00000290: 77af 61be 0a7b 94bd 9f79 d4be 95ac 34be
000002a0: e149 92be 11c6 bfbd 75cf 95be 6627 8abd
000002b0: d4cd 55be 28da 8ebc c501 2bbe 0653 cbbe
000002c0: c933 40be 0cb4 c4bd d74c 243e 5809 5fbe
000002d0: ce27 8ebd 4964 81be 36b4 ee3d bf45 86be
000002e0: 51cc d03d 54dc a23d 4cf7 3abe 3127 1e3e
000002f0: be8c babd f47f 18be 93c6 afbe 3f8f 6fbe
00000300: 36eb 843e c924 c2be f804 0fbf b37d 82be
00000310: 76ce c1bf a2f9 a63d 341a c43d 8b99 0dbd
00000320: c98d b8be 9c37 6cbe e93b d8bd 7ed1 19be
00000330: b49a 0abe d609 4c3d 3da1 073e 7310 bd3c
00000340: 47e3 80be 654b f0bd 97bb 7bbe 9f35 fcbe
00000350: efa2 75be 0e4f a2be f2cc 4bbd bb7c 49be
00000360: 8c03 5abe 05bf 20bf 9075 32bc 4b9b eebe
00000370: b427 e9be ef36 25bf d259 43bd fb6c 8ebe
00000380: 025b 48be b550 9dbe c0bd 96be 9a5b 803e
00000390: fd7a f6be 8824 aa3e 48f7 96be 0924 773d
000003a0: 635b 82bd d7c3 77bf b780 77be 4e24 813e
000003b0: 4c3f ecbd 7d02 013e 7756 2cbf 4923 9abd
000003c0: 603b cd3d 0a48 903d c483 0abe 7396 97be
000003d0: 99b2 a2bd 19e4 6cbe 2992 d4be 2e5c eebd
000003e0: c839 b8bc 9b19 d23e 1e7b c1be 4f6a 00bd
000003f0: eef7 5dbe 75bb 35bf 875a 3abe 2184 113e

critic.network.2.bias f4 [64]
-0.091099806 0.15440586 -0.41622832 -0.41513124 -0.07309583 0.0028924546 0.008402865 -0.15944977
0.189186 -0.1179786 0.21745753 0.048137113 0.112238705 -0.11591183 -0.057526853 -0.017485144
0.017709753 -0.02818642 -0.008949341 -0.52466047 -0.16301078 -0.25403348 0.05274024 0.14251588
-0.080994695 -0.3110429 0.2684973 -0.57544965 0.31334665 -0.077122115 0.61505175 0.2683935
-0.0560827 -0.41756624 0.13891348 0.17566322 0.28743017 -0.5334246 -0.009073956 -0.13061345
-0.218932 -0.35356295 -0.044289883 0.0064401887 -0.18731609 -0.17570414 -0.20948537 -0.06186965
0.5976941 -0.35974732 -0.037718225 -0.229886 0.23145314 0.19714147 0.13206309 0.2024322
-0.24937648 -0.2666314 -0.08426387 0.03828284 -0.15288942 0.12216632 -0.16213576 -0.123235114
00000000: 8992 babd 921c 1e3e e11b d5be 158c d4be
00000010: 44b3 95bd 568f 3d3b 2cac 093c cd46 23be
00000020: fab9 413e c49e f1bd 30ad 5e3e 6c2b 453d
00000030: 68dd e53d 2e63 edbd 47a1 6bbd 013d 8fbc
00000040: 0b14 913c 35e7 e6bc 42a0 12bc 2650 06bf
00000050: 4cec 26be ad10 82be 2606 583d afef 113e
00000060: 8ce0 a5bd 0441 9fbe 7a78 893e ab50 13bf
00000070: f96e a03e 33f2 9dbd 0874 1d3f df6a 893e
00000080: f9b6 65bd 3ecb d5be 563f 0e3e 0fe1 333e
00000090: 0c2a 933e 848e 08bf eeaa 14bc 88bf 05be
000000a0: b62f 60be 3406 b5be 4f69 35bd 3808 d33b
000000b0: cacf 3fbe c9eb 33be 5583 56be 086b 7dbd
000000c0: 7b02 193f cd30 b8be 6d7e 1abd 3c67 6bbe
000000d0: 0d02 6d3e 74df 493e 8c3b 073e 634a 4f3e
000000e0: 8c5c 7fbe e983 88be 8992 acbd 78ce 1c3d
000000f0: 0b8f 1cbe 5632 fa3d eb06 26be b162 fcbd

critic.network.4.weight f4 [1, 64]
0.29094723 0.3589125 -0.0019242204 -0.07580504 -0.011872463 0.086751 -0.15564454 0.037874904
0.38923088 -0.04358956 0.10750588 -0.17806795 0.18727918 0.37749657 -0.20683914 0.16022141
0.046533857 -0.3742838 0.20146911 -0.079336055 -0.26908955 -0.017595896 0.12063961 -0.25545794
-0.24963647 0.0883146 0.2893173 0.14671515 0.23421471 -0.0013116318 -0.37207395 -0.15702341
-0.48949423 -0.055802934 0.2220343 -0.17188409 0.33359298 -0.2005803 0.23973165 -0.2613294
-0.19118358 -0.12530917 -0.051590957 0.042364288 0.104528315 -0.19216044 -0.16757815 0.056963414
0.1801204 -0.08496538 -0.11755511 -0.27024403 -0.38569307 -0.3022534 0.09827339 -0.18763204
-0.22795421 -0.075042225 -0.26587677 0.26722628 0.24382791 -0.10953001 0.019144434 0.06355831
00000000: 09f7 943e 61c3 b73e 1f36 fcba ac3f 9bbd
00000010: b884 42bc 82aa b13d 4861 1fbe b722 1b3d
00000020: 4549 c73e f78a 32bd 0b2c dc3d 7257 36be
00000030: 1dc6 3f3e 3b47 c13e a4cd 53be 1511 243e
00000040: 499a 3e3d 20a2 bfbe eb4d 4e3e f17a a2bd
00000050: 1bc6 89be 4525 90bc e611 f73d 62cb 82be
00000060: b4a0 7fbe 49de b43d 6621 943e 7f3c 163e
00000070: fbd5 6f3e 0feb abba 7a80 bebe bfca 20be
00000080: fd9e fabe 9e91 64bd f65c 633e 6202 30be
00000090: b3cc aa3e ec64 4dbe 377c 753e f8cc 85be
000000a0: a1c5 43be 0c51 00be 0a51 53bd 2d86 2d3d
000000b0: f112 d63d b5c5 44be 9b99 2bbe 7852 693d
000000c0: 7b71 383e 5402 aebd bcc0 f0bd 6d5d 8abe
000000d0: 9079 c5be f5c0 9abe 8f43 c93d 9d22 40be
000000e0: d46c 69be bdaf 99bd 0021 88be e2d1 883e
000000f0: 06ae 793e 4551 e0bd cad4 9c3c dc2a 823d
